InitialTesting/policy_net.pth (torch, 3430 bytes, 6 tensors)

layer1.weight f4 [10, 5]
000000 0c b8 10 3e ac 53 1a 3e 46 61 ad 3e 9e 42 72 be
       0.14132708 0.15070981 0.33863276 -0.23658225
000010 40 b0 fe 3d 54 f8 6c 3e 20 9a 5d bc 5a 6f e1 3e
       0.12435961 0.23141605 -0.013525516 0.44030267
000020 cc 67 34 3e 64 01 32 3e d2 a6 8a 3e 78 ef d5 3d
       0.1761772 0.17383343 0.270804 0.10446066
000030 76 0d cf 3e 08 c5 8c 3e c8 51 de 3e cc 1e 72 3e
       0.40439957 0.27494073 0.4342177 0.2364456
000040 20 e1 14 3e a9 0f 92 be 74 cb a1 3e e0 35 ed 3d
       0.14539003 -0.28527573 0.31600535 0.115825415
000050 56 b3 a8 3e ae 33 84 3e 3a 21 34 be 24 63 3a 3e
       0.32949322 0.25820678 -0.175908 0.18201882
000060 92 7f 91 be fc df 5e 3e ac a1 5d 3e 68 4f cb 3e
       -0.2841764 0.21765131 0.21643704 0.3970902
000070 c8 03 62 be 40 3b 42 3c 4e 56 c3 3e 9c 93 02 be
       -0.22071755 0.011854947 0.38151783 -0.12751621
000080 82 5c 86 3e 83 aa cc be ee 36 c9 3e 40 b9 44 3e
       0.26242453 -0.3997384 0.3929972 0.19211292
000090 2c be 6a 3e 18 ac 7e 3e 5e b0 0e be 50 a1 73 3e
       0.22924107 0.24870336 -0.13934466 0.23792005
0000a0 80 ab a9 3c c8 6a 51 3e b8 be b1 bd c0 88 82 bb
       0.02071166 0.2045089 -0.08678955 -0.003983587
0000b0 20 09 af 3d 50 db 33 3d ae 4f b6 3e a0 c4 18 3c
       0.08546662 0.043910325 0.35607666 0.009324223
0000c0 f8 75 d7 3d 14 0a 13 3e
       0.10520548 0.14359313

layer1.bias f4 [10]
000000 17 f5 9e be 1a ef aa be e0 15 49 bc 62 1b 70 be
       -0.31046364 -0.33385545 -0.012273282 -0.23447946
000010 de 4b 9e 3e 9e 30 a2 be f4 e1 88 bd f2 c7 bf 3e
       0.30917257 -0.31677717 -0.06683722 0.37457234
000020 58 67 95 3e 50 34 4d 3e
       0.29180408 0.20039487

layer2.weight f4 [10, 10]
000000 90 ac d8 3c 9e 35 51 be 60 11 d2 bd cc ec 11 be
       0.026449472 -0.2043061 -0.1025722 -0.14250487
000010 03 91 9f be c4 3a ff bd 54 3b 84 be 3b a6 94 be
       -0.31165323 -0.124623805 -0.25826514 -0.29033074
000020 ff fb 96 be a1 2f 02 be 3a fd 2f 3e 4c 0b 6b be
       -0.29489133 -0.12713481 0.17186442 -0.22953528
000030 20 d5 bf 3d bb ce 9d be 78 65 be bd 04 a5 00 3e
       0.09366822 -0.30821785 -0.092966974 0.12562948
000040 61 91 23 be d4 c0 07 be 50 77 95 bc 26 b4 27 3e
       -0.15973426 -0.13257152 -0.01824537 0.16377315
000050 80 20 f5 3c a2 6e 81 be a9 4e 88 be f1 bf 26 be
       0.029922724 -0.2527972 -0.26622513 -0.16284157
000060 9a 04 4d 3e d4 f2 37 3e 98 cf 7c 3d 9f fe 6e be
       0.20021287 0.17963725 0.061721414 -0.23339318
000070 40 62 fc 3d 78 4a d4 3d 61 87 a1 3e f7 f7 8e be
       0.12323427 0.10365766 0.31548598 -0.27923557
000080 2d a1 17 be d6 e0 4d 3e 0c d2 07 3e dc 11 26 3e
       -0.14807577 0.201053 0.1326372 0.1621775
000090 b0 0b a4 bc ce e4 7f 3e 80 58 d0 3c a0 1d 15 3e
       -0.020025104 0.24989626 0.025432825 0.14562082
0000a0 46 da 4d 3e fb c4 26 be 43 fd 20 be fc ac 99 bd
       0.20102796 -0.1628608 -0.15721612 -0.07503697
0000b0 c0 6c 52 bc be c0 16 3e 80 ba 6d bb 36 cc 4e 3e
       -0.012843311 0.14721963 -0.0036274493 0.20195088
0000c0 68 d3 7c be 18 e8 91 bd 40 96 87 3c e0 5b 71 bc
       -0.2469002 -0.071243465 0.016551137 -0.014731377
0000d0 42 8c 90 bd 6d 78 94 3e cd 29 07 be b4 dc 7e be
       -0.07058002 0.28998128 -0.1319954 -0.24888879
0000e0 8e 33 5a 3e 1d ae 85 be 79 51 9c be 26 82 8e bd
       0.21308729 -0.261094 -0.3053091 -0.069584176
0000f0 2c 31 87 bd b3 a2 95 3e f7 60 94 3e f1 51 a0 3e
       -0.06601176 0.29225692 0.28980228 0.31312516
000100 5f e0 82 be 24 60 9a be 80 23 91 3d 22 91 4b 3e
       -0.25561807 -0.30151474 0.07086849 0.19879583
000110 2e fe 7b 3e c2 db 63 3e 00 6e d2 3a 62 59 a2 bd
       0.2460868 0.222518 0.0016054511 -0.07927205
000120 a9 9d 78 be 92 e3 7d 3e 98 eb c2 3d 00 6b cb bb
       -0.24278893 0.24793842 0.09517592 -0.0062078238
000130 ec 1f 28 be 9c a8 2f 3e ee 2a 4e be 9a d3 a1 be
       -0.16418427 0.17154163 -0.20133564 -0.31606752
000140 c0 81 09 3e 77 13 44 be 56 df 19 be 41 b7 85 be
       0.13428402 -0.1914805 -0.15026602 -0.26116374
000150 44 71 ea 3d 20 87 0c bc 5a 65 ce bd 0a 1c 25 3e
       0.11447385 -0.008577138 -0.10077925 0.16123977
000160 44 c9 d8 3d a6 36 49 be 92 46 56 be e9 23 8f 3e
       0.10585263 -0.19649753 -0.20925358 0.27957085
000170 80 69 98 3c e0 75 0d 3d 4b e1 92 be 70 19 10 bd
       0.018604994 0.034536242 -0.2868751 -0.03518051
000180 8e 48 8e bd 00 9a df ba c2 0d 07 3e da e9 96 be
       -0.069474325 -0.0017059445 0.13188842 -0.2947529

layer2.bias f4 [10]
000000 42 ee 40 3e 06 36 94 be 54 c8 b6 3d e8 7f 14 bd
       0.18840888 -0.28947467 0.08924928 -0.036254793
000010 27 41 9f 3e a7 bb 9c be 14 a9 fa 3d db 2f 79 be
       0.31104395 -0.30611917 0.1223928 -0.24334662
000020 3a 0a 6f 3e 70 c9 4b bd
       0.23343745 -0.049752653

layer3.weight f4 [5, 10]
000000 3a 43 36 3e 70 dd b1 bd 08 28 2b 3e 75 93 91 be
       0.17799082 -0.08684814 0.1671449 -0.28432813
000010 40 c7 2f 3e 38 85 18 3e 3a 26 65 be 38 b3 88 be
       0.17165852 0.14894569 -0.22377864 -0.26699233
000020 95 4f 68 be 28 ca 81 bd 68 73 25 3e c0 01 81 3c
       -0.22686608 -0.06337386 0.16157305 0.015747905
000030 56 67 53 3e f0 ac 93 3c 20 4d 3f bd 18 44 31 3d
       0.20644888 0.018026799 -0.04670441 0.04327783
000040 fa 1d e7 bd 92 98 29 be 79 f7 2a be 6d d9 86 3e
       -0.112850145 -0.16562107 -0.16695966 0.26337758
000050 2a 93 c1 bd 52 e1 67 3e 12 39 5a 3e 28 86 2f be
       -0.094518974 0.22644547 0.21310833 -0.1714102
000060 2a e3 7d 3e cd 32 32 be 7f b3 93 3e ff 91 93 3e
       0.24793687 -0.17402191 0.28847882 0.28822324
000070 a0 38 a0 be ce 56 43 3e b6 26 97 be 36 6f e7 bd
       -0.312932 0.19076082 -0.29521722 -0.11300509
000080 f8 79 03 be 30 f4 c5 3d 5b a3 88 3e 23 af 8c 3e
       -0.12839496 0.09665716 0.2668713 0.2747737
000090 c9 14 89 3e cc 15 e5 3d 20 21 64 3c 38 d9 36 bd
       0.2677367 0.11185798 0.013923913 -0.04464075
0000a0 e6 48 e3 bd 2e 2d 87 be 64 30 4c be e4 78 72 be
       -0.11097889 -0.26401657 -0.19940335 -0.23678929
0000b0 70 40 ac 3c d2 ff 55 3e f4 c7 9d 3d 2a 28 2b 3e
       0.02102682 0.20898369 0.07704154 0.1671454
0000c0 5c 72 23 be d8 27 22 bd
       -0.15961593 -0.03958878

layer3.bias f4 [5]
000000 56 0c 3f 3e 77 a9 27 be b4 f3 9c bd d3 9d 27 be
       0.1865705 -0.1637324 -0.0766367 -0.16368799
000010 50 4b a9 3c
       0.020665795
