target_net.pth (torch, 3430 bytes, 6 tensors)

layer1.weight f4 [10, 5]
0	0x3d981048	0.074249804
1	0xbe3bce36	-0.18340382
2	0xbe04d788	-0.12972844
3	0xbedf5b80	-0.43624496
4	0x3e4e2c58	0.20134103
5	0x3e0d89d0	0.13822103
6	0x3edbe62c	0.42949045
7	0x3db01600	0.08597946
8	0x3d5c0990	0.053720057
9	0xbdea3914	-0.11436668
10	0x3ee06586	0.43827456
11	0x3eae05d4	0.33988822
12	0xbe169db8	-0.14708602
13	0x3e4818d0	0.19540715
14	0xbcf67a80	-0.03008771
15	0xbeda5351	-0.4264169
16	0xbdf3c1b4	-0.1190218
17	0xbe882f46	-0.26598567
18	0x3dd9a208	0.10626608
19	0xbe8dd1e2	-0.2769919
20	0xbee10874	-0.43951762
21	0xbdc059a0	-0.093920946
22	0xbdea70d0	-0.114472985
23	0xbe3d01fe	-0.18457791
24	0xbdb52048	-0.08844048
25	0x3e3a7d8c	0.18211955
26	0xbdd654f0	-0.10465419
27	0x3e65233c	0.22376722
28	0xbe789e92	-0.2427924
29	0x3eb1afb4	0.34704363
30	0xbd885930	-0.06657636
31	0x3e8da63c	0.2766589
32	0x3ea870cc	0.32898557
33	0xbed5214a	-0.4162696
34	0x3e87a00e	0.264893
35	0x3e062bb0	0.13102603
36	0x3e6ec01c	0.23315471
37	0x3de80bc8	0.11330372
38	0x3ee4561c	0.44596946
39	0x3e32394c	0.1740467
40	0xb86dc000	-5.6684017e-05
41	0xbe0c2b3e	-0.1368837
42	0xbe8b9e1f	-0.27269074
43	0x3e3b5fd8	0.1829828
44	0xbdc88a70	-0.0979203
45	0xbce37bf0	-0.027769059
46	0xbd6a9370	-0.057269514
47	0xbdc8b570	-0.098002315
48	0x3e587efc	0.2114219
49	0xbe0876e0	-0.13326597

layer1.bias f4 [10]
0	0xbe9a17a8	-0.30096173
1	0x3e28e898	0.16494977
2	0xbecffc50	-0.40622187
3	0xbe88f255	-0.26747385
4	0xbea93692	-0.33049446
5	0xbe91cac3	-0.28475007
6	0x3e5ec024	0.21752983
7	0xbd368988	-0.044564754
8	0x3d8f1b40	0.069876194
9	0x3e8895da	0.26676828

layer2.weight f4 [10, 10]
0	0xbd946c90	-0.07247269
1	0x3e6d644a	0.23182788
2	0x3ea1d5ff	0.3160858
3	0x3dc80634	0.09766808
4	0x3b8fb100	0.0043851137
5	0x3cc3d360	0.023904502
6	0x3dd2cc50	0.10292876
7	0x3d6c9f78	0.05776927
8	0xbd8a8726	-0.06764059
9	0xbc5a8460	-0.013337225
10	0x3db92860	0.09040904
11	0x3d95bc44	0.073112994
12	0xbea03701	-0.31291965
13	0xbe42dfd6	-0.19030699
14	0x3e82a8d1	0.25519422
15	0x3e1540be	0.14575478
16	0x3b43e580	0.0029891431
17	0xbe8fd6ca	-0.2809356
18	0x3e171b6a	0.14756551
19	0x3e30b7ae	0.17257568
20	0xbe99db65	-0.30050197
21	0x3e13792e	0.14401695
22	0xbe0d3760	-0.13790655
23	0x3e8fe757	0.28106186
24	0xbe2b39a8	-0.16721213
25	0xbe14ce1c	-0.1453175
26	0x3dea2734	0.11433259
27	0x3dc21b84	0.094779044
28	0x3e476416	0.19471774
29	0xbe893f7b	-0.26806244
30	0x3dc82290	0.09772217
31	0xbe427424	-0.18989617
32	0x3e740ff6	0.23834214
33	0xbe7db4b8	-0.2477597
34	0xbd8612fc	-0.0654659
35	0xbe9559f6	-0.29170197
36	0xbe8fffdc	-0.28124893
37	0x3e72a73e	0.2369661
38	0xbe6b25ca	-0.22963634
39	0xbe12d4d4	-0.14339
40	0x3e30149c	0.17195362
41	0x3dba20dc	0.09088299
42	0x3e99047b	0.2988623
43	0xbcf97a90	-0.03045395
44	0xbe8c10ff	-0.27356717
45	0xbe5dba8c	-0.21653193
46	0x3e2270ee	0.15863392
47	0x3d0e3f40	0.03472829
48	0x3e9f26bb	0.31084237
49	0x3e8d675f	0.27617928
50	0xbe81de30	-0.25364828
51	0x3e9e4033	0.30908355
52	0x3e231158	0.15924585
53	0x3e2a3fe0	0.16625929
54	0x3dec61cc	0.11542091
55	0xbda12dd0	-0.07870066
56	0x3d81c5b4	0.06336537
57	0xbd5e1948	-0.05422333
58	0x3e55c7fe	0.20877072
59	0xbe24d8fe	-0.16098401
60	0x3cd679b0	0.026181072
61	0xbe648366	-0.2231575
62	0xbe66e5de	-0.22548625
63	0x3d4ddca8	0.050259262
64	0x3e207492	0.15669468
65	0x3d053488	0.0325208
66	0x3e63d506	0.2224923
67	0xbea0565c	-0.31315887
68	0x3e87944f	0.26480338
69	0xbd854e54	-0.065090805
70	0x3e3c260c	0.18373889
71	0xbe9b4120	-0.30323124
72	0x3d9df344	0.07712415
73	0x3e8912d7	0.26772186
74	0x3e8d6fff	0.2762451
75	0x3e04a424	0.1295324
76	0xbbab7980	-0.00523299
77	0x3e30f0a2	0.17279294
78	0xbdcd8fc2	-0.10037185
79	0xbbf8a540	-0.0075880587
80	0x3e03dae2	0.12876466
81	0x3ea02e3d	0.31285277
82	0x3e825f4b	0.25463328
83	0x3d7adea0	0.061247468
84	0xbe00eb51	-0.12589766
85	0x3e9b9af9	0.30391672
86	0xbd8b0538	-0.06788105
87	0x3e340314	0.17579299
88	0xbd8b7460	-0.06809306
89	0x3e85e737	0.26152965
90	0x3cfc3930	0.030788988
91	0xbded7fee	-0.11596666
92	0x3dbff9b0	0.09373796
93	0x3e6be39e	0.23036048
94	0xbd887af0	-0.066640735
95	0xbc1f2420	-0.009713203
96	0xbe439e6c	-0.19103402
97	0x3e8d5747	0.2760565
98	0xbe95dd58	-0.29270434
99	0x3ba6afc0	0.005086869

layer2.bias f4 [10]
0	0xbd37fc38	-0.04491827
1	0xbe05de1b	-0.13073008
2	0xbd941f86	-0.07232575
3	0xbe853379	-0.26015833
4	0xbe89002f	-0.26757953
5	0xbe543a70	-0.20725417
6	0xbe869f27	-0.262933
7	0x3e299df0	0.16564155
8	0x3d416008	0.047210723
9	0xbadf8000	-0.0017051697

layer3.weight f4 [5, 10]
0	0xbe1eecc9	-0.15520014
1	0xbd490550	-0.049077332
2	0xbd9085c8	-0.07056767
3	0x3d83d000	0.06436157
4	0x3e4b5856	0.19857916
5	0xbe035352	-0.12824753
6	0xbe03db1f	-0.12876557
7	0xbe5b9708	-0.21444333
8	0xbe83d79d	-0.25750437
9	0x3e99af69	0.3001664
10	0x3c9a27c0	0.018817782
11	0x3b44f880	0.0030055344
12	0xbe83335a	-0.25625116
13	0x3e9cecfb	0.30649552
14	0x3d682f48	0.056685716
15	0x3e90b8fb	0.2826613
16	0xbe0a7c76	-0.1352404
17	0xbe327508	-0.17427456
18	0x3e9a5e2b	0.3014997
19	0x3e48bc0e	0.19602987
20	0xbe4db2b8	-0.20087707
21	0x3e734cba	0.23759738
22	0x3e4992be	0.19684884
23	0x3e0df640	0.13863468
24	0xbdc0675c	-0.09394714
25	0xbd8ce3ee	-0.06879412
26	0xbe8abd56	-0.27097577
27	0xbd368d60	-0.04456842
28	0x3e16fce8	0.14744914
29	0xbe793539	-0.24336709
30	0x3e46d4ea	0.19417158
31	0x3e190288	0.14942372
32	0x3dc880d8	0.097902
33	0xbd1d64b0	-0.0384261
34	0xbdf5ee84	-0.12008384
35	0xbd6fe948	-0.058572084
36	0x3e958211	0.29200795
37	0xbe5d729b	-0.2162575
38	0xbe1f285b	-0.15542738
39	0xbcd80ad0	-0.026372343
40	0x3e824359	0.25442007
41	0x3de74804	0.11293033
42	0xbe082bd2	-0.13297966
43	0x3e209eb6	0.15685543
44	0xbdb6cbc2	-0.089255825
45	0xbe395365	-0.18098219
46	0x3e71d6ae	0.2361705
47	0xbe64e784	-0.22353941
48	0x3e6a047a	0.2285327
49	0x3d4ebab8	0.050471038

layer3.bias f4 [5]
0	0xbdb9ab80	-0.09065914
1	0xbded43c8	-0.11585194
2	0x3e9c1ed5	0.30492273
3	0x3d6f7820	0.05846417
4	0x3db7c654	0.08973375
