FinalIteration/policy_net.pth (torch, 3430 bytes, 6 tensors)

layer1.weight f4 [10, 5]
000000 a8 62 be 3e 92 7a 43 be 58 92 18 3d 68 4d c4 3d
       0.37184644 -0.19089726 0.03724894 0.095850766
000010 40 66 e5 bd 7e 06 99 be 18 b9 66 3e 82 0a 73 be
       -0.11201143 -0.29887766 0.22531545 -0.23734477
000020 80 c3 49 3b 52 9f bc 3e 0c cf 2d 3e 66 cb 86 be
       0.0030786693 0.36840302 0.16973513 -0.26327056
000030 d8 15 92 bd 8e 26 d7 be 40 9d 0e 3e 6c 20 39 3e
       -0.071330726 -0.42021602 0.13927174 0.18078774
000040 80 21 91 bc fe c7 cc 3e 08 72 3a bd d8 61 e7 3d
       -0.01771617 0.39996332 -0.045518905 0.11297959
000050 52 88 6f be b3 89 98 be 20 c3 e7 bd f6 62 29 be
       -0.23391846 -0.29792556 -0.11316514 -0.16541657
000060 44 a9 94 bd 90 60 40 3e 28 c1 43 3e 08 39 ff bd
       -0.07258847 0.18786836 0.19116652 -0.1246205
000070 b0 dd 6e 3e 70 41 49 be f8 5c 41 bd ec a2 84 be
       0.23326755 -0.19653869 -0.047207803 -0.2590555
000080 70 81 e1 bc 91 f2 5b be 02 a2 9e be 50 21 38 3d
       -0.02752754 -0.2147925 -0.30982977 0.044953644
000090 3a be 9a 3e 98 6c 10 3d 92 c4 9b 3e 18 ff b0 bd
       0.30223256 0.035259813 0.3042341 -0.08642405
0000a0 a0 80 11 3e 9a cc a2 be e0 40 ec 3d 28 a7 48 3e
       0.14209223 -0.31796724 0.115358114 0.19595015
0000b0 d0 44 89 be e0 7a fa bd a8 cf 97 be 70 0e 76 3d
       -0.26810312 -0.12230468 -0.29650617 0.060072362
0000c0 64 4a ad bd 26 2b d2 be
       -0.084614545 -0.41048545

layer1.bias f4 [10]
000000 94 cc 8c be 80 03 bd bd 00 10 1a 3d 14 d5 57 3e
       -0.2749983 -0.09229183 0.037612915 0.21077377
000010 2e a6 c6 be 76 8b 40 be 00 9e c8 3c 20 54 77 3d
       -0.3879866 -0.188032 0.024489403 0.060382962
000020 58 24 e5 3d 98 dc 45 3d
       0.11188573 0.048306078

layer2.weight f4 [10, 10]
000000 90 04 48 3d 50 e6 ad bc 4e e2 85 be 90 bd c5 3c
       0.048832476 -0.021227986 -0.2614922 0.024138242
000010 07 78 99 3e 39 52 62 be f8 a6 43 be f6 3f 0b be
       0.29974386 -0.22101678 -0.19106662 -0.13598618
000020 30 fa 50 3d 8e e6 35 3e b2 dd 99 be 14 ff fc 3d
       0.051019847 0.17763731 -0.30051953 0.1235334
000030 e5 4e 8c 3e 20 0c 46 bd f6 eb 35 3e 1a e7 5e be
       0.27403942 -0.048351407 0.17765793 -0.21767846
000040 90 70 b3 3c bc 1c b1 3d 2c 2c 11 3e 71 f5 1c be
       0.02190426 0.08648059 0.14177006 -0.15328003
000050 86 6c 42 3e fa be 9c be 4f 19 9a be 2c 4d 85 3d
       0.18986711 -0.30614454 -0.30097434 0.0650886
000060 ed 92 9c 3e e3 6b 8a 3e bc 9f 8e 3d e9 ce a0 be
       0.30580845 0.27035436 0.06964061 -0.3140786
000070 f0 6c b1 3d 00 c9 99 ba 10 fd 2a 3d 20 fe 3a be
       0.08663356 -0.0011732876 0.041745245 -0.18261003
000080 a0 c0 50 be 53 ef 73 be 08 4f fb 3d c3 9c 36 be
       -0.2038598 -0.23821764 0.122709334 -0.17833237
000090 70 cf 9b bc 22 39 10 3e b4 e3 01 3e 73 08 9c 3e
       -0.019019812 0.14084294 0.12684518 0.30475196
0000a0 34 49 34 3e be f8 4d 3e 92 ec 49 3e e2 ef 8a be
       0.1760605 0.20114419 0.1971915 -0.2713614
0000b0 e0 d3 35 3e 2c 21 f5 3d d8 a0 cc 3d e2 b0 13 be
       0.17756605 0.11969218 0.09991616 -0.14422944
0000c0 f5 75 3d be 74 5b e9 3d 64 42 d1 3d 33 96 9d 3e
       -0.18502028 0.113943964 0.10217741 0.30778655
0000d0 42 8a 4f be b8 65 1c bd ce 55 89 bd 14 66 1f be
       -0.20267585 -0.038182944 -0.06705819 -0.15566283
0000e0 06 68 46 3e b4 ea 28 be 04 d9 b7 3d 4f 58 99 be
       0.1937562 -0.16495782 0.08976939 -0.29950187
0000f0 6e ca 6a 3e 50 a6 ba 3c 7d 5c 68 be 36 be 71 3e
       0.22928783 0.022784382 -0.22691531 0.23607716
000100 f8 ef c1 3d c6 75 75 3e 00 28 cb ba 30 1f 3f bd
       0.094695985 0.23970708 -0.0015499592 -0.046660602
000110 e5 0b a1 3e 42 9f be bd 60 fc 29 bd e4 a8 0b 3e
       0.31454387 -0.0930772 -0.04150045 0.13638645
000120 79 ee 9b be a8 37 85 be 08 6c 05 3d d2 f5 99 bd
       -0.30455378 -0.26019025 0.03257373 -0.0751759
000130 90 b0 5e be c0 60 50 be 6f e5 68 be 40 7e c1 bc
       -0.21747041 -0.20349407 -0.22743772 -0.023619771
000140 2d 1f 2f be d8 37 0c 3e 00 27 1e 3d 3a f2 4f be
       -0.17101736 0.13693178 0.038611412 -0.20307246
000150 db d6 8f 3e 80 d7 a0 bb 94 ea d4 3d af 77 a1 be
       0.2809361 -0.004908502 0.10396305 -0.31536624
000160 90 d6 6a 3d 72 7a 72 3e 98 ae 14 bd ae 18 16 3e
       0.05733353 0.23679522 -0.036299318 0.14657852
000170 2c a2 e9 bd 5d 48 a1 3e 58 5e 71 3d 79 28 88 be
       -0.11407885 0.3150052 0.058927864 -0.26593378
000180 24 1d bc 3d f2 56 42 3e 36 21 60 3e 10 78 1e 3d
       0.09185246 0.1897848 0.21887669 0.03868872

layer2.bias f4 [10]
000000 70 ff e2 bd d0 2a 05 3e 08 06 50 3d 6e 76 18 3e
       -0.11083877 0.13004613 0.050787 0.14888927
000010 63 27 80 be 63 b7 99 be 68 37 0c 3d c8 cf 21 bd
       -0.2503005 -0.30022725 0.034232527 -0.039504796
000020 18 33 e1 3d 78 c9 0e 3d
       0.109960735 0.034860104

layer3.weight f4 [5, 10]
000000 02 95 4c be 9c 9d 85 be f0 e4 2f bd 80 c9 16 3d
       -0.19978717 -0.2609681 -0.04294294 0.03681326
000010 34 53 b0 bd 6e 9b 70 3e 56 46 10 3e 6f 69 58 be
       -0.0860962 0.23496792 0.14089331 -0.2113397
000020 c4 47 f8 3d dc d7 fd 3d 20 b6 14 be 6b 9a 95 3e
       0.12123063 0.123946875 -0.145226 0.29219374
000030 cc d4 3b 3e d8 b0 60 bd 5a bf 18 3e e4 8e a3 bd
       0.18342894 -0.05485615 0.14916745 -0.079862386
000040 d1 9e 8e 3e c8 06 e8 3d 14 4c 35 3e e0 58 7d bc
       0.27855542 0.113294184 0.17704803 -0.015463084
000050 90 05 cc bd dd b4 3b be 89 c8 87 3e d4 d1 3b be
       -0.099619985 -0.18330713 0.26520184 -0.18341762
000060 ae d3 35 be 28 18 2a bd c8 44 e4 3d 11 9d 81 3e
       -0.1775653 -0.041526943 0.111459315 0.25315145
000070 61 9b 96 3e e2 94 60 be 90 c4 07 be 24 96 83 bd
       0.2941542 -0.21931794 -0.13258576 -0.064251214
000080 69 3b 92 3e ce d8 68 3e 3c a5 85 3d 00 db 8f be
       0.2856095 0.22738954 0.065256566 -0.2809677
000090 1d 7b 9d 3e 52 e0 1c 3e 61 71 21 be c0 9e 7f be
       0.3075799 0.15319946 -0.15765907 -0.24962902
0000a0 f0 ca 97 be cb 21 22 be fc c9 b0 bd 40 a6 c8 bb
       -0.29647017 -0.15833203 -0.086322755 -0.006123334
0000b0 ce 77 84 be d6 ba 84 be 44 73 e7 3d 42 4e 64 3e
       -0.25872654 -0.25923795 0.11301282 0.22295478
0000c0 21 1e 96 3e ea 1a 2d be
       0.29319862 -0.16904798

layer3.bias f4 [5]
000000 2a ae 56 be 4a f6 75 3e 60 63 9a be 60 d4 54 3d
       -0.20964876 0.24019733 -0.30153942 0.05196035
000010 a0 a8 18 3d
       0.03727019
