Iteration2/policy_net.pth (torch, 3430 bytes, 6 tensors)

layer1.weight f4 [10, 5]
000000 a0 96 86 bd b6 10 d1 3e a0 a7 a0 be c2 33 23 be
       -0.06571698 0.40833062 -0.31377888 -0.15937713
000010 7c a8 d5 bd 03 a6 dd be 16 3a df be 0a b7 bc be
       -0.104325265 -0.4329072 -0.43599004 -0.36858398
000020 e4 f1 7c 3e d6 1a 76 be 9e cb 82 3e 7e d7 dc 3e
       0.24701649 -0.24033675 0.25545973 0.43133157
000030 fb 7b 67 be 90 34 70 3e 02 eb 87 be 52 ef cf 3e
       -0.22605889 0.23457551 -0.26546484 0.40612274
000040 7e fd b3 be 96 44 c0 3e ad 6d c8 be ac 15 c5 3e
       -0.35154337 0.37552327 -0.39146176 0.38493097
000050 e4 78 99 3e 14 35 b1 3e 58 94 6c bd 08 90 f7 bd
       0.29975045 0.34610808 -0.05775866 -0.12088019
000060 20 17 7a be 40 3b 93 bd 78 68 c7 3e 00 9a 85 bd
       -0.24422884 -0.071890354 0.3894689 -0.06523514
000070 06 19 a3 be ce 00 e2 be 80 73 db bb 28 bd b6 be
       -0.3185503 -0.4414124 -0.0066971183 -0.3569119
000080 f0 c2 82 3e 00 03 ba 3d a2 01 4d be 9a 24 b7 be
       0.2553935 0.090826035 -0.20020154 -0.35770112
000090 b8 05 0b be 00 c9 aa 3d 96 0b a4 be 10 8e 48 3d
       -0.135764 0.08339119 -0.3204009 0.048963606
0000a0 4c 97 91 be e4 d5 04 3e 00 62 11 bc f4 bc 54 3e
       -0.28435743 0.12972218 -0.008873463 0.20775205
0000b0 fd c1 bd be 72 06 a8 3e 92 81 bd 3e 2c e7 92 be
       -0.37062064 0.32817417 0.37012917 -0.28691995
0000c0 b0 81 7c 3d 70 bb 9b 3e
       0.061647117 0.3041644

layer1.bias f4 [10]
000000 a8 af 11 be 50 b4 9a be 44 48 92 be 78 a8 b5 3d
       -0.14227164 -0.30215693 -0.2857076 0.088700235
000010 39 33 a5 be da 78 8d be af f9 bf be e0 60 11 be
       -0.32265642 -0.27631265 -0.3749518 -0.14197111
000020 78 db f1 bd 3d 6b 50 be
       -0.118094385 -0.20353408

layer2.weight f4 [10, 10]
000000 d6 f2 3c 3e 06 af d0 bd 92 70 d0 bd b6 82 58 3e
       0.1845201 -0.10189633 -0.10177721 0.21143612
000010 5c 07 3f be 70 ec 22 3e a2 cb 4a 3e 7e 47 70 3e
       -0.18655151 0.15910506 0.19804242 0.23464772
000020 bc 67 24 3e ec 31 36 3e 8a d7 0f be ab a0 98 3e
       0.16055197 0.17792481 -0.14047065 0.2981008
000030 c4 2a aa 3d c0 0a 8a be 3a a4 6a be 6a 14 7e 3e
       0.08308938 -0.26961327 -0.2291421 0.24812475
000040 6d 59 26 be a1 59 31 be 4e 33 6a 3e 72 8e b2 bd
       -0.1624505 -0.17319347 0.22871134 -0.087185755
000050 1a 87 4f 3e 42 aa 7a 3e c1 0f 9f be de d6 88 be
       0.20266381 0.2447901 -0.31066707 -0.2672643
000060 e7 74 a0 3e 8e 5f 67 be 95 9f 8c 3e 4c b4 9c be
       0.3133919 -0.22595045 0.274655 -0.30606306
000070 f2 7d 12 3e 3b d2 8c 3e 70 78 d5 3c 98 85 32 bd
       0.14305857 0.27504143 0.026058406 -0.043584436
000080 04 10 12 be 10 1d ac 3c 52 0f 5b 3e e3 c0 9f be
       -0.14263922 0.021009952 0.21392563 -0.31201848
000090 e4 a7 7d be 12 27 7b 3e d8 16 2a 3e bc 13 96 be
       -0.24771076 0.24526623 0.16610277 -0.2931193
0000a0 b0 3d 3b be f4 01 87 bd aa c5 30 be f1 45 9d 3e
       -0.1828525 -0.065921694 -0.17262903 0.30717424
0000b0 a4 3c c1 3d 52 48 7e 3e 7c 69 33 3e 0d 3a 8e 3e
       0.094353944 0.24832276 0.17520708 0.27778664
0000c0 46 bc b7 bd 1c 94 f4 bd f0 4b aa 3d ca a5 02 3e
       -0.08971457 -0.11942312 0.08315265 0.12758556
0000d0 79 d2 03 be 18 cc 05 3e 70 0f 32 bd c8 51 80 be
       -0.12873258 0.13066137 -0.043471754 -0.25062394
0000e0 1a 5a 99 be 43 44 8f 3e 44 31 74 be 00 90 ae 3a
       -0.29951555 0.27981767 -0.23846918 0.0013318062
0000f0 94 d5 d6 3d a6 cd 4c 3e 78 81 22 3d ac f6 5c be
       0.104899555 0.20000324 0.039674252 -0.21578473
000100 e8 f0 3b 3e 60 ac f1 bc 06 f6 51 3e c6 83 37 be
       0.18353617 -0.02950114 0.20504007 -0.17921361
000110 a0 8b 84 bc b9 06 8d 3e 7c 7e 89 be 10 94 f1 3c
       -0.01617986 0.2754419 -0.26854312 0.029489547
000120 f8 99 99 3d 2f cd 9c 3e 42 16 6a be b0 56 f7 3d
       0.0750007 0.30625293 -0.22860053 0.12077081
000130 00 47 bb 3a ae 29 bd bd f8 27 2d 3d c7 75 13 be
       0.0014288127 -0.092364654 0.042274445 -0.14400397
000140 9c 6e 11 be 45 b2 54 be cc f4 b4 3d dc 6c c0 3d
       -0.1420235 -0.2077113 0.08835754 0.09395763
000150 46 58 63 3e 90 77 93 3d f3 9b 36 be 2d 3a 66 be
       0.22201642 0.07200539 -0.17832927 -0.2248313
000160 4c dd 9a bd e9 7e 8e 3e fc b9 d2 3d d8 f8 72 be
       -0.0756174 0.278312 0.1028938 -0.23727739
000170 11 48 98 3e a0 e4 9b 3c e9 b6 3b be 2e ff 06 3e
       0.29742482 0.019029915 -0.18331493 0.13183281
000180 c2 ce 44 3e 83 14 22 be d7 cb 8e be d2 c3 6f be
       0.19219497 -0.15828137 -0.27889892 -0.23414543

layer2.bias f4 [10]
000000 80 25 40 3c 04 8f a0 3d 7b cc 21 be 96 36 87 be
       0.011727691 0.07839778 -0.1580066 -0.26408833
000010 f3 3a 86 be 4c 5a c3 3d 04 bf 90 be 7a f9 76 3e
       -0.2621685 0.09538707 -0.28270733 0.24118605
000020 cc 8b 50 be 0a b9 31 3e
       -0.20365828 0.17355743

layer3.weight f4 [5, 10]
000000 52 c3 80 be 21 94 10 be c9 01 84 be f6 1b fa bd
       -0.25149018 -0.14119007 -0.25782612 -0.122123644
000010 50 53 14 bd 48 87 84 be 22 d6 4b 3e 8c d5 a7 bd
       -0.036212265 -0.2588446 0.19905904 -0.08195028
000020 ba 1f 07 3e 0b 1e 14 be 07 96 8c 3e 7c 55 13 3e
       0.13195696 -0.14464585 0.27458212 0.14388078
000030 56 67 96 be cf 52 6c be fc 97 0a 3e 46 8b 87 be
       -0.29375714 -0.23078464 0.1353454 -0.26473445
000040 06 9d 3d 3e f0 6c 80 bd 09 65 8e 3e f8 f6 10 3e
       0.18516931 -0.06270778 0.2781146 0.14156711
000050 e8 ae 63 be 60 79 2a 3d 0a 30 cd bd 10 69 e4 3c
       -0.2223469 0.04161966 -0.10018928 0.027882129
000060 e0 90 7f bc d3 75 0f be 60 b1 88 3c 80 5f 05 3e
       -0.015598506 -0.1400979 0.016686141 0.13024712
000070 70 0d d9 3c ac 5a a7 3d b0 16 e7 3c f8 94 67 be
       0.026495665 0.08171591 0.02820906 -0.22615421
000080 5a af 43 be c6 20 45 be 6a 1a 8b be fa 0e 43 3e
       -0.1910986 -0.19250783 -0.2716859 0.19048682
000090 b2 19 eb bd d4 4d e1 bd 54 8b c3 bd 00 a3 a1 3b
       -0.1147951 -0.11001173 -0.09548059 0.004932761
0000a0 b6 7d 70 be a7 95 85 be 38 7d 8d be 32 22 7d 3e
       -0.23485455 -0.26090738 -0.27634597 0.24720076
0000b0 76 6a 86 be 72 b2 36 3e 27 b7 88 3e 0c 1c 87 bd
       -0.26253098 0.17841509 0.26702234 -0.065971464
0000c0 20 15 6d bc f0 14 fd 3d
       -0.014470369 0.12357509

layer3.bias f4 [5]
000000 db ab 9f 3e c3 db 91 3e 29 d8 0f be 0c 0d 9d 3d
       0.31185803 0.28487977 -0.14047302 0.07668504
000010 8a 62 b4 bd
       -0.08807857
