Iteration3/target_net.pth (torch, 3430 bytes, 6 tensors)

layer1.weight f4 [10, 5]
0.029696286 -0.4391735 -0.37545067 0.29538375 0.09298253 -0.08174011 0.16363496 0.019465804
0.13628036 -0.11295372 -0.117721885 -0.24855244 0.31490594 0.20265067 -0.25717163 0.0833056
0.05042672 0.35324955 0.21416688 -0.21594521 -0.35034138 0.30139035 0.17152143 -0.37681833
-0.1462338 0.110116065 -0.169097 0.27505487 -0.13179114 -0.17609945 -0.34918368 0.0025399327
0.3259973 0.4231518 0.30585855 0.44257766 0.22512227 0.3687665 -0.40881306 0.32791668
0.28055418 0.21499181 0.2996561 0.3824464 -0.014147133 0.26234698 0.19968367 0.24387133
-0.14114466 0.37855572
00000000: a045 f33c 59db e0be 123b c0be 8a3c 973e
00000010: a06d be3d 5c67 a7bd ec8f 273e c076 9f3c
00000020: 148d 0b3e 4854 e7bd 2c18 f1bd 8884 7ebe
00000030: 5a3b a13e a883 4f3e 00ac 83be 209c aa3d
00000040: 408c 4e3d 20dd b43e 904e 5b3e be20 5dbe
00000050: f25f b3be d64f 9a3e 50a3 2f3e 55ee c0be
00000060: 50be 15be 8884 e13d c427 2dbe fed3 8c3e
00000070: 42f4 06be 6a53 34be 34c8 b2be 0075 263b
00000080: 1ee9 a63e 5aa7 d83e 7e99 9c3e 8a99 e23e
00000090: 7486 663e f6ce bc3e f24f d1be b2e4 a73e
000000a0: cca4 8f3e d026 5c3e 866c 993e 04d0 c33e
000000b0: 60c9 67bc 5852 863e e079 4c3e 68b9 793e
000000c0: 3a88 10be 0ed2 c13e

layer1.bias f4 [10]
-0.1331281 0.4349441 -0.29948395 0.2376715 0.017041445 -0.36784393 0.2643572 -0.032384753
-0.13768053 0.15390563
00000000: bc52 08be feb0 de3e f655 99be 2860 733e
00000010: 809a 8b3c 0a56 bcbe d459 873e e0a5 04bd
00000020: 20fc 0cbe 7099 1d3e

layer2.weight f4 [10, 10]
-0.24741206 -0.15276448 0.27550372 0.1368759 -0.025491387 -0.21953626 0.12686285 -0.16559464
-0.2760996 -0.18078552 -0.02248329 -0.23634502 0.0864611 -0.23968889 0.09828183 0.08910513
-0.19218883 -0.08470306 0.032568425 -0.121180564 -0.17692482 -0.034169883 0.07125786 0.25712898
-0.22608519 -0.19606943 0.2107983 -0.26152813 -0.21021241 -0.0705329 -0.2636519 0.12992626
-0.2698986 0.2965996 -0.14538698 -0.22094177 -0.12363036 0.23209897 0.2133632 0.15510935
0.11554584 -0.22323696 0.26034424 0.17704609 -0.0022818148 -0.10468182 0.07603496 0.113197684
-0.26621124 -0.17814961 -0.16143222 0.2775484 0.20267633 -0.27095914 0.06551716 -0.31552958
-0.22044376 0.23344871 0.22572425 0.20272002 -0.06604338 -0.18949574 -0.15537588 -0.31324857
0.10233283 -0.12970932 -0.09296574 -0.12440881 0.11610761 -0.07553801 0.0995481 -0.30561116
0.16553274 -0.19757228 -0.14326534 0.14287314 0.061849684 -0.29373932 0.09936181 0.13883466
0.15299064 0.19979617 0.09987342 0.3091853 0.1314019 0.3160917 -0.30065715 -0.05394116
-0.10648994 -0.24717277 0.20439169 0.20916864 0.04718581 -0.2377044 -0.08010173 -0.04814282
0.18236813 0.16733396 0.18606028 0.017819762
00000000: 9659 7dbe 4b6e 1cbe d30e 8d3e 3229 0c3e
00000010: 50d3 d0bc 1dce 60be 56e8 013e a491 29be
00000020: ed5c 8dbe d71f 39be e02e b8bc 6e04 72be
00000030: 8412 b13d 0171 75be fc47 c93d c07c b63d
00000040: 26cd 44be cc78 adbd 7866 053d 842d f8bd
00000050: c82b 35be b8f5 0bbd a4ef 913d 69a6 833e
00000060: e082 67be 6dc6 48be 82db 573e 04e7 85be
00000070: ec41 57be 8e73 90bd 62fd 86be 640b 053e
00000080: 2630 8abe e7db 973e 53e0 14be 8f3e 62be
00000090: ea31 fdbd 5aab 6d3e e27b 5a3e fcd4 1e3e
000000a0: 4ca3 ec3d 3b98 64be d74b 853e 924b 353e
000000b0: 808a 15bb 6c63 d6bd 38b8 9b3d 30d4 e73d
000000c0: d74c 88be da6c 36be 7d4e 25be d31a 8e3e
000000d0: 628a 4f3e 28bb 8abe dc2d 863d 188d a1be
000000e0: 02bc 61be 2e0d 6f3e 4224 673e d695 4f3e
000000f0: c041 87bd 2c0b 42be db1a 1fbe 1e62 a0be
00000100: e093 d13d 85d2 04be d264 bebd 0cca febd
00000110: d4c9 ed3d acb3 9abd e0df cb3d 1179 9cbe
00000120: 6a81 293e 6350 4abe 26b4 12be 564d 123e
00000130: 1856 7d3d 0065 96be 347e cb3d ac2a 0e3e
00000140: 94a9 1c3e 5e97 4c3e 708a cc3d 894d 9e3e
00000150: 388e 063e c5d6 a13e bcef 99be 68f1 5cbd
00000160: 6617 dabd dc1a 7dbe 0e4c 513e 4e30 563e
00000170: e845 413d c868 73be 600c a4bd 6831 45bd
00000180: b6be 3a3e 9859 2b3e 9686 3e3e c0fa 913c

layer2.bias f4 [10]
-0.019414067 0.19260493 0.035593957 0.20966837 0.23467138 -0.2992593 -0.008309007 0.3154802
-0.21244024 -0.2638647
00000000: 400a 9fbc 3a3a 453e f8ca 113d 4eb3 563e
00000010: b24d 703e 8438 99be 8022 08bc 9f86 a13e
00000020: ef89 59be 4619 87be

layer3.weight f4 [5, 10]
0.02198708 0.22452864 0.19597772 0.010433525 0.18423209 0.29209355 0.04657799 -0.23915759
-0.096181765 -0.22103812 -0.06685758 0.1466322 -0.05768001 0.18226436 0.12183526 -0.14740638
0.2672859 0.111965984 0.2296795 0.26485738 0.11812088 0.28155175 -0.23207855 0.31056824
-0.25135148 -0.25085834 0.23555294 -0.07885876 0.16819778 -0.07905905 0.22499779 -0.003260374
-0.0006517172 -0.26505008 -0.19256508 -0.086107194 -0.025255471 0.07616806 -0.27291232 0.25201806
0.21082184 -0.19219929 0.19582054 0.14622965 0.07572907 -0.121966705 0.1558286 0.08188751
0.027402908 0.13393459
00000000: 401e b43c d6ea 653e 62ae 483e 60f1 2a3c
00000010: 56a7 3c3e 498d 953e 90c8 3e3d bae5 74be
00000020: f2fa c4bd d157 62be a0ec 88bd c026 163e
00000030: e041 6cbd 82a3 3a3e c484 f93d b3f1 16be
00000040: b3d9 883e 6c4e e53d 1a31 6b3e 639b 873e
00000050: 5ce9 f13d 8d27 903e 00a6 6dbe cd02 9f3e
00000060: 24b1 80be 8170 80be ca34 713e b480 a1bd
00000070: 0a3c 2c3e b6e9 a1bd d265 663e 00ac 55bb
00000080: 00d8 2aba a5b4 87be c82f 45be f858 b0bd
00000090: 90e4 cebc 00fe 9b3d 2abb 8bbe 8308 813e
000000a0: aee1 573e e4cf 44be 2e85 483e 3abd 153e
000000b0: d817 9b3d aec9 f9bd 8891 1f3e a4b4 a73d
000000c0: 107c e03c 2626 093e

layer3.bias f4 [5]
-0.014225721 -0.04726109 -0.06535864 -0.3063465 0.026005238
00000000: 0013 69bc d894 41bd c0da 85bd 73d9 9cbe
00000010: f008 d53c
