Iteration1/policy_net.pth (torch, 3430 bytes, 6 tensors)

layer1.weight f4 [10, 5]
00000000: ce2c afbe 504f e53d 28e1 02be c474 bf3e
00000010: 3cd2 92be a015 683c a83e fd3d 621f 3cbe
00000020: 97a2 b0be 8cd5 603e f83a 3e3e 05a3 4dbe
00000030: 262f 86be 88f5 fa3d 080b ac3e dcaa 72be
00000040: e044 dbbd 5a3d cc3e 7c7f 8fbe db53 b9be
00000050: 27ee dbbe e4fc d1be cbb5 56be 846a e03e
00000060: 4559 dfbe dcd2 40be 30fd 213e 9ac1 ce3e
00000070: 14ab 85bd c015 ef3b cb17 59be 40b7 a3be
00000080: a805 873e d021 b33c c8da a73d 6032 a13e
00000090: e022 a4be e729 8cbe aaf8 2fbe 221d dabe
000000a0: ccaf 2c3e e0d7 3ebc 9cce 98bd 381f a03d
000000b0: 3488 973e 486e 9a3d 8054 e33e 78e7 17bd
000000c0: 2070 3e3e 0cae 97be
-0.3421387 0.11196768 -0.12781203 0.37393773 -0.2867602 0.014165312 0.12365466 -0.18371347
-0.34499046 0.21956462 0.18577182 -0.20081718 -0.26207846 0.122538626 0.33602166 -0.2369799
-0.10706496 0.39890558 -0.2802695 -0.3619679 -0.42955133 -0.41013253 -0.20967786 0.43831265
-0.43622795 -0.18830436 0.1581924 0.4038208 -0.06526771 0.007296294 -0.21200483 -0.31975746
0.26371503 0.021866709 0.08196026 0.31483746 -0.32057858 -0.2737572 -0.17184702 -0.42600352
0.16863936 -0.011648148 -0.074612826 0.078184545 0.29596102 0.07540566 0.44400406 -0.03708598
0.1859746 -0.29624975

layer1.bias f4 [10]
00000000: 42ef cdbe b8ed c93d c0c9 273e d650 a33e
00000010: 502c 72bd f047 4c3d dec8 85be d45b 953e
00000020: 1c00 e7bd d01b c63e
-0.40221602 0.098597944 0.16385555 0.3189761 -0.05912429 0.049873292 -0.26129812 0.29171622
-0.11279318 0.38693094

layer2.weight f4 [10, 10]
00000000: 184f f1bd 4067 80bb e045 67bd 302f 8abc
00000010: c0d1 41bd f8eb bf3d dcc1 b93d 23cb 97be
00000020: 2a28 01be f82e c2bd 4896 c43d 0833 dc3d
00000030: e1c6 84be c0c8 6b3d 7030 7cbd 147e 77be
00000040: 179a 993e 9031 78bd f4bc c23d c010 3bbd
00000050: df0d 1dbe cbf7 893e 2efc 563e f847 1a3d
00000060: 134f 07be c5d3 a03e 0767 9b3e 4a7d 3c3e
00000070: 9612 05be 00b7 503c 9a58 613e 7659 3f3e
00000080: b79e 07be b773 8c3e 37ef 9f3e c094 bf3d
00000090: 9de2 9dbe 7891 563d 97bd 26be 5253 f1bd
000000a0: a0c0 6bbd 4929 933e 80d9 a1bb 08b2 6dbe
000000b0: 4fbc 00be 982d 0dbe f00b 773d 1ea2 4a3e
000000c0: 5c72 a0be e0d0 2a3c 00ea b0ba 106d 68bd
000000d0: 7ac5 633e f8fe 6e3d 548f fc3d 282a 033d
000000e0: 11c5 9ebe 1900 9f3e 00c0 bfb9 bae4 00be
000000f0: 1aa8 423e cf1c 9f3e 32da c7bd ec87 f93d
00000100: 4073 52be ee2a 4dbe 8080 643b bf00 9dbe
00000110: a8d4 63be d40c 163e 00d8 8d3b 900b 91be
00000120: c02d d4bb de95 83be 7fd4 80be f28e 523e
00000130: b6bf 523e dd32 3ebe a42b 903d e08b 6dbd
00000140: fed6 08be 689c d33d a72e 2fbe b09c 97bc
00000150: dc0b 82bd 806b 13be 28e4 6e3d acd2 bf3d
00000160: 8485 bf3d 001c d63c 90c3 21bd a8b1 83be
00000170: 0785 06be b89e 783d 4088 623c 152d 1ebe
00000180: f67b 14be 760f 573e 1b84 99be 80cd 5ebd
-0.11782664 -0.0039185584 -0.056463122 -0.016868204 -0.047319174 0.09371179 0.09070179 -0.2964717
-0.12612978 -0.09481615 0.095989764 0.10751921 -0.25932983 0.057564497 -0.06156963 -0.24169189
0.30000374 -0.06059414 0.09508696 -0.04567027 -0.15337323 0.26946864 0.20994636 0.03766629
-0.13213758 0.31411567 0.3035204 0.18407169 -0.12995371 0.012738943 0.22006455 0.1868647
-0.13244139 0.27432033 0.31237194 0.09354544 -0.30836955 0.052384824 -0.1628326 -0.1178347
-0.05755675 0.28742436 -0.004939258 -0.23212445 -0.12571834 -0.13786924 0.06031412 0.19788405
-0.3133725 0.010425776 -0.0013497472 -0.056744635 0.222433 0.058348626 0.12332025 0.032022625
-0.31009725 0.31054762 -0.0003657341 -0.12587252 0.19009438 0.31076667 -0.09758414 0.12184128
-0.20551777 -0.20035908 0.003486663 -0.30664632 -0.2224909 0.14653331 0.0043287277 -0.28329134
-0.0064751804 -0.25700277 -0.25162122 0.20562342 0.20580944 -0.1857409 0.07039574 -0.057994723
-0.13363263 0.103325665 -0.1710764 -0.018507332 -0.06349918 -0.14396477 0.058323056 0.09366354
0.09351638 0.026136398 -0.039493144 -0.25721478 -0.13136683 0.06069824 0.01382643 -0.15446885
-0.14500412 0.21001992 -0.299836 -0.0543952

layer2.bias f4 [10]
00000000: 56c8 353e 8e93 8abd f05c ebbc 80a1 dfbd
00000010: 377f 853e b09e 68be b8e3 c43d 1218 8abe
00000020: 6a04 87be 6033 24bc
0.17752203 -0.06766425 -0.02873084 -0.109194756 0.2607362 -0.22716784 0.096137464 -0.2697149
-0.26370555 -0.010022014

layer3.weight f4 [5, 10]
00000000: 2895 393e 5c13 39be 1430 203e 9c17 97be
00000010: d07c bd3c bc9e 89bd 3ea6 243e 6657 1e3e
00000020: 1cf0 97be 605a f53c facc 3a3e 4ea2 98bd
00000030: 3173 8f3e 9ed7 093e fb2a 983e 5806 73bd
00000040: dbc4 a0be fe11 463e dace cebd 3e20 3d3e
00000050: c284 9dbe 5ede 633e 5052 82be bbf2 983e
00000060: 0065 aeba 3c83 aebd 7eb7 ffbd e899 06bd
00000070: bd20 803e 5c50 bdbd a9e4 943e 60bb 9dbc
00000080: ea72 3abe d617 3e3e 4665 5dbe 8012 033e
00000090: 4040 94bc b05c 83bd 34f6 e73d b8f5 2f3e
000000a0: e3ce 25be 80d4 2c3c 9b81 33be f0e8 1b3e
000000b0: 000e 1a3b f34e 01be 60bc 3a3e 6071 ea3d
000000c0: bae0 dcbd 0433 c5bd
0.18123305 -0.18073791 0.1564334 -0.295102 0.023130804 -0.06719729 0.16079041 0.15463027
-0.29675376 0.02995032 0.18242255 -0.07452832 0.28017572 0.13461158 0.29720291 -0.05933222
-0.3140019 0.19342801 -0.100980476 0.1846933 -0.3076535 0.22252795 -0.25453424 0.2987269
-0.0013305247 -0.08521125 -0.1248617 -0.03286162 0.25024977 -0.09243843 0.29080704 -0.019254386
-0.18207899 0.1856378 -0.21620664 0.12800026 -0.018097043 -0.06414163 0.113262564 0.17183578
-0.16192202 0.010548711 -0.1752991 0.15225577 0.002350688 -0.12627773 0.18235922 0.11447406
-0.10785051 -0.09628871

layer3.bias f4 [5]
00000000: fe86 28be 5ecb d3bd a6a0 efbd 0098 6fb9
00000010: 9f05 8d3e
-0.16457745 -0.103415236 -0.11700563 -0.0002284944 0.2754335
